src/vision-OpenMV/trained.tflite (tflite, 56616 bytes, 21 tensors)

model_1/logits/Conv2D i1 [3, 1, 1, 32]
000000 57 4d 6c a3 ba 06 f8 09 e7 30 09 f9 d8 c0 51 06
       87 77 108 -93 -70 6 -8 9 -25 48 9 -7 -40 -64 81 6
000010 cb 36 77 7f fe f7 67 d2 a1 52 b1 ff 3a 1a f1 2d
       -53 54 119 127 -2 -9 103 -46 -95 82 -79 -1 58 26 -15 45
000020 3d d9 c1 14 f6 77 f1 fa 74 ce 00 8b c6 68 1a d3
       61 -39 -63 20 -10 119 -15 -6 116 -50 0 -117 -58 104 26 -45
000030 57 d9 d2 81 98 16 3c 48 15 09 06 08 c4 d0 f7 bb
       87 -39 -46 -127 -104 22 60 72 21 9 6 8 -60 -48 -9 -69
000040 e0 3b bc 45 4b d9 e6 65 51 1e 6e ee aa b6 43 67
       -32 59 -68 69 75 -39 -26 101 81 30 110 -18 -86 -74 67 103
000050 b7 d4 e6 81 39 5e b0 b1 49 ba f2 8f 15 bf 4c d1
       -73 -44 -26 -127 57 94 -80 -79 73 -70 -14 -113 21 -65 76 -47

model_1/head/Conv2D i1 [32, 1, 1, 96]
000000 db d2 6a 11 6c 0e b3 9f 45 ae 9f 03 2b 11 e4 3b
       -37 -46 106 17 108 14 -77 -97 69 -82 -97 3 43 17 -28 59
000010 d9 eb 9f d5 cb a7 10 70 81 01 52 d4 6d 1e 00 a6
       -39 -21 -97 -43 -53 -89 16 112 -127 1 82 -44 109 30 0 -90
000020 5d d3 b9 41 9c bc 9f 26 51 b6 a7 68 36 9d 74 05
       93 -45 -71 65 -100 -68 -97 38 81 -74 -89 104 54 -99 116 5
000030 1b c6 db 67 a7 e4 b4 77 35 5b 7e 9f b7 55 d3 44
       27 -58 -37 103 -89 -28 -76 119 53 91 126 -97 -73 85 -45 68
000040 32 13 4f 6a 50 61 67 9e 6e 8d 3e 59 a3 18 cf 1c
       50 19 79 106 80 97 103 -98 110 -115 62 89 -93 24 -49 28
000050 3c 19 72 ff cf dc bc 5f 2f 7a ec 91 0e 64 18 1b
       60 25 114 -1 -49 -36 -68 95 47 122 -20 -111 14 100 24 27
000060 c7 24 bc 00 c5 44 2b 07 56 90 98 6c 10 e1 1d 46
       -57 36 -68 0 -59 68 43 7 86 -112 -104 108 16 -31 29 70
000070 70 d9 1c 7d cf fd 28 20 2f 16 db 6c 07 ee 68 c6
       112 -39 28 125 -49 -3 40 32 47 22 -37 108 7 -18 104 -58
000080 3b 73 f2 16 35 44 ee c5 c3 0d e8 9d e3 29 e4 c9
       59 115 -14 22 53 68 -18 -59 -61 13 -24 -99 -29 41 -28 -55
000090 ea 9d 57 3f fe 5c b5 cf 16 5c 41 54 bf 78 be a2
       -22 -99 87 63 -2 92 -75 -49 22 92 65 84 -65 120 -66 -94
0000a0 b4 28 52 35 50 19 0d 0c 8e 64 cb 36 56 d2 da 4e
       -76 40 82 53 80 25 13 12 -114 100 -53 54 86 -46 -38 78
0000b0 b1 56 b9 92 20 7f b7 c1 50 56 69 1e 49 43 15 ef
       -79 86 -71 -110 32 127 -73 -63 80 86 105 30 73 67 21 -17
0000c0 24 2a c4 5d d5 bc 54 62 9a 58 d4 79 2e ee 50 88
       36 42 -60 93 -43 -68 84 98 -102 88 -44 121 46 -18 80 -120
0000d0 c4 dd 48 2d 96 ed 6e 11 dd 4a 63 25 bb 3c 4e 57
       -60 -35 72 45 -106 -19 110 17 -35 74 99 37 -69 60 78 87
0000e0 af e2 98 a0 aa 58 6e dc 81 aa 0d f8 a4 71 dc ad
       -81 -30 -104 -96 -86 88 110 -36 -127 -86 13 -8 -92 113 -36 -83
0000f0 60 2c 44 9c ea 31 0f 0e b2 54 b7 04 e7 41 d0 3f
       96 44 68 -100 -22 49 15 14 -78 84 -73 4 -25 65 -48 63

model_1/block_6_expand/Conv2D i1 [96, 1, 1, 16]
000000 e2 3d ef 81 c4 f9 dc d0 d7 0a ef 3a fd d1 fe 38
       -30 61 -17 -127 -60 -7 -36 -48 -41 10 -17 58 -3 -47 -2 56
000010 d0 18 b3 f2 da ef 08 a3 3e 2c c9 08 f7 fd 1e 81
       -48 24 -77 -14 -38 -17 8 -93 62 44 -55 8 -9 -3 30 -127
000020 2a 11 de 35 35 16 cd d5 7f ed fc 16 fa 6d d2 14
       42 17 -34 53 53 22 -51 -43 127 -19 -4 22 -6 109 -46 20
000030 43 c5 14 a2 17 d0 0f 05 7f 05 56 2a 0a 3b f9 5f
       67 -59 20 -94 23 -48 15 5 127 5 86 42 10 59 -7 95
000040 ad 44 0b 2f 17 e5 f6 5c 02 1e 06 ce 81 eb f4 2b
       -83 68 11 47 23 -27 -10 92 2 30 6 -50 -127 -21 -12 43
000050 fd 52 7e fc 13 79 91 4e ab 4c b0 d3 14 c8 81 2f
       -3 82 126 -4 19 121 -111 78 -85 76 -80 -45 20 -56 -127 47
000060 0d c1 67 81 16 14 d2 41 ba 9d 3f de f5 4b d5 43
       13 -63 103 -127 22 20 -46 65 -70 -99 63 -34 -11 75 -43 67
000070 23 6d f4 cf 50 00 02 d5 7f 5f ef 1e 24 ec 44 28
       35 109 -12 -49 80 0 2 -43 127 95 -17 30 36 -20 68 40
000080 0c a1 ff 9d 0c d1 0b b6 11 3a 49 f1 07 7f 5a 4a
       12 -95 -1 -99 12 -47 11 -74 17 58 73 -15 7 127 90 74
000090 06 e9 fb 7f 1f 01 2d c1 bc 75 1d ea f4 b3 ee f9
       6 -23 -5 127 31 1 45 -63 -68 117 29 -22 -12 -77 -18 -7
0000a0 d7 18 c9 81 02 00 eb 38 08 dc ff d6 ed c8 06 2d
       -41 24 -55 -127 2 0 -21 56 8 -36 -1 -42 -19 -56 6 45
0000b0 06 12 0e ec 55 ed 4e c7 a8 22 fa 15 f8 7f b4 e9
       6 18 14 -20 85 -19 78 -57 -88 34 -6 21 -8 127 -76 -23
0000c0 2d 30 81 08 44 a1 31 01 2f 29 ea bb fd 7b ef 39
       45 48 -127 8 68 -95 49 1 47 41 -22 -69 -3 123 -17 57
0000d0 e9 0c e1 06 02 81 f7 15 ff f1 0a f8 07 ed 0d 10
       -23 12 -31 6 2 -127 -9 21 -1 -15 10 -8 7 -19 13 16
0000e0 1d e1 79 e5 4e f7 81 96 f5 cf 2d 28 14 c4 db cc
       29 -31 121 -27 78 -9 -127 -106 -11 -49 45 40 20 -60 -37 -52
0000f0 bc 2a eb cc 1e 08 7f 36 d8 28 52 dc 09 45 26 fd
       -68 42 -21 -52 30 8 127 54 -40 40 82 -36 9 69 38 -3

model_1/block_5_project/Conv2D i1 [16, 1, 1, 96]
000000 f4 f8 10 e8 1d f3 ea 06 10 fe eb 0b ff f3 e9 0f
       -12 -8 16 -24 29 -13 -22 6 16 -2 -21 11 -1 -13 -23 15
000010 ff ff ff 01 0b ed 08 0c 06 0b fb 7f 21 e6 22 ff
       -1 -1 -1 1 11 -19 8 12 6 11 -5 127 33 -26 34 -1
000020 08 0e 05 05 ff 0f ed 02 ee 03 08 2b 01 0d 07 00
       8 14 5 5 -1 15 -19 2 -18 3 8 43 1 13 7 0
000030 1b 00 fb 16 14 ef f8 54 fd 0a e8 df 0a 15 00 f3
       27 0 -5 22 20 -17 -8 84 -3 10 -24 -33 10 21 0 -13
000040 e0 c9 ee 2a fa 15 0e f5 f6 ea ff f2 dc 17 00 08
       -32 -55 -18 42 -6 21 14 -11 -10 -22 -1 -14 -36 23 0 8
000050 f7 ee 17 14 fa f6 f3 ad 06 f1 05 01 2f e4 e8 f3
       -9 -18 23 20 -6 -10 -13 -83 6 -15 5 1 47 -28 -24 -13
000060 19 bf cf d0 7f e0 3d 23 f2 a1 c1 00 11 ed ca 28
       25 -65 -49 -48 127 -32 61 35 -14 -95 -63 0 17 -19 -54 40
000070 c7 ff 29 2a 19 2e f7 cf 0b f8 e7 d5 23 f8 c0 34
       -57 -1 41 42 25 46 -9 -49 11 -8 -25 -43 35 -8 -64 52
000080 ec 2c fd 04 13 10 0d 24 ea 1b e1 14 d2 58 02 08
       -20 44 -3 4 19 16 13 36 -22 27 -31 20 -46 88 2 8
000090 15 be ff fd fb 27 2f 2e c2 f3 e5 d9 27 ed 01 e9
       21 -66 -1 -3 -5 39 47 46 -62 -13 -27 -39 39 -19 1 -23
0000a0 b8 58 ee fc ec f7 ee 12 34 a8 ea 0c 0b d8 21 0a
       -72 88 -18 -4 -20 -9 -18 18 52 -88 -22 12 11 -40 33 10
0000b0 08 ea 1f 04 c3 24 e8 1a 1b de f6 0a 1a 04 2b 57
       8 -22 31 4 -61 36 -24 26 27 -34 -10 10 26 4 43 87
0000c0 16 25 c2 01 47 63 26 33 03 ab fd eb 15 06 19 24
       22 37 -62 1 71 99 38 51 3 -85 -3 -21 21 6 25 36
0000d0 0a e4 b8 36 01 0e 50 1e 25 26 10 d6 22 fb 34 bd
       10 -28 -72 54 1 14 80 30 37 38 16 -42 34 -5 52 -67
0000e0 29 1c 05 28 81 a2 48 fe f5 e6 17 cf 26 e7 f0 35
       41 28 5 40 -127 -94 72 -2 -11 -26 23 -49 38 -25 -16 53
0000f0 e6 09 ec db 59 fa f0 46 16 03 18 09 0b 11 07 e2
       -26 9 -20 -37 89 -6 -16 70 22 3 24 9 11 17 7 -30

model_1/block_5_depthwise_BN/FusedBatchNormV3;model_1/block_5_depthwise/depthwise;model_1/block_6_expand/Conv2D i1 [1, 3, 3, 96]
000000 d4 b9 f8 7f 16 4a 54 c1 f3 ec f0 fb e3 fd 25 05
       -44 -71 -8 127 22 74 84 -63 -13 -20 -16 -5 -29 -3 37 5
000010 f7 d6 1a 13 0c 81 7f 0a b7 0e 33 e3 84 81 27 19
       -9 -42 26 19 12 -127 127 10 -73 14 51 -29 -124 -127 39 25
000020 0a 1d 3e ed e0 f7 20 f9 f1 1d 94 48 19 ba 27 2e
       10 29 62 -19 -32 -9 32 -7 -15 29 -108 72 25 -70 39 46
000030 ee 39 e9 17 08 f7 12 30 a0 cd c2 ed f5 00 09 25
       -18 57 -23 23 8 -9 18 48 -96 -51 -62 -19 -11 0 9 37
000040 43 e7 51 0f f7 11 15 7f 17 17 1c fd f5 15 7f f9
       67 -25 81 15 -9 17 21 127 23 23 28 -3 -11 21 127 -7
000050 f0 0e e5 15 79 16 b4 ef 00 e2 f0 d6 00 e8 f0 19
       -16 14 -27 21 121 22 -76 -17 0 -30 -16 -42 0 -24 -16 25
000060 7f 81 4c 6a d4 7f 21 87 49 02 ed 7f 7f a2 f3 11
       127 -127 76 106 -44 127 33 -121 73 2 -19 127 127 -94 -13 17
000070 0d 7f 7f 8f 7f ab 4f 47 81 96 be dc c7 2f c5 ec
       13 127 127 -113 127 -85 79 71 -127 -106 -66 -36 -57 47 -59 -20
000080 a7 3a 81 a9 d6 ef cf 3c fe 7f 7f 59 cd 8b 91 cc
       -89 58 -127 -87 -42 -17 -49 60 -2 127 127 89 -51 -117 -111 -52
000090 f1 81 2a 57 44 e0 2f 54 cd 28 af 8f d9 d6 c1 42
       -15 -127 42 87 68 -32 47 84 -51 40 -81 -113 -39 -42 -63 66
0000a0 49 c3 20 1f ad 21 ee 5d 76 7f 10 12 03 3f e1 37
       73 -61 32 31 -83 33 -18 93 118 127 16 18 3 63 -31 55
0000b0 42 7f 7f ea f6 4b 8f 7f 82 9d 04 81 a5 81 db 6d
       66 127 127 -22 -10 75 -113 127 -126 -99 4 -127 -91 -127 -37 109
0000c0 ba f3 21 ad 0f e9 54 f5 54 dd e4 16 ed fb f9 f6
       -70 -13 33 -83 15 -23 84 -11 84 -35 -28 22 -19 -5 -7 -10
0000d0 f9 f0 07 fb e4 91 1f 05 89 65 02 c7 6f 33 f1 08
       -7 -16 7 -5 -28 -111 31 5 -119 101 2 -57 111 51 -15 8
0000e0 f9 12 0e e3 f5 24 16 0e 19 0d 8d 49 12 eb 26 0d
       -7 18 14 -29 -11 36 22 14 25 13 -115 73 18 -21 38 13
0000f0 f1 0e ef 08 fc fc fc 18 bf 03 df 33 03 28 20 00
       -15 14 -17 8 -4 -4 -4 24 -65 3 -33 51 3 40 32 0

model_1/block_5_expand/Conv2D i1 [96, 1, 1, 16]
000000 ec 49 e5 43 12 03 11 f2 1f 1c dd 54 13 81 34 8b
       -20 73 -27 67 18 3 17 -14 31 28 -35 84 19 -127 52 -117
000010 11 38 fb e6 1d da 7f 8d 07 55 fa fb 0a c9 16 09
       17 56 -5 -26 29 -38 127 -115 7 85 -6 -5 10 -55 22 9
000020 8e 37 d6 dc cc e7 19 5f bb 05 7f ec d0 f6 dd 1c
       -114 55 -42 -36 -52 -25 25 95 -69 5 127 -20 -48 -10 -35 28
000030 b2 29 fd 43 c5 3c 3f 58 13 52 81 14 12 c7 bb ea
       -78 41 -3 67 -59 60 63 88 19 82 -127 20 18 -57 -69 -22
000040 ef e3 16 21 d9 3a e6 14 d7 d9 f8 ef 10 e9 81 01
       -17 -29 22 33 -39 58 -26 20 -41 -39 -8 -17 16 -23 -127 1
000050 ec e6 25 e8 0e f3 ee 1c ae 57 d9 81 ec 03 c5 ea
       -20 -26 37 -24 14 -13 -18 28 -82 87 -39 -127 -20 3 -59 -22
000060 d9 0a fb cd f3 42 bf dd db d7 43 02 7f d4 be 04
       -39 10 -5 -51 -13 66 -65 -35 -37 -41 67 2 127 -44 -66 4
000070 24 14 7f fa e9 f8 00 f1 aa 1e 98 ce e5 0a 3a bf
       36 20 127 -6 -23 -8 0 -15 -86 30 -104 -50 -27 10 58 -65
000080 12 0e 40 34 d2 4c 01 3f 09 ef f9 d6 ed f1 81 bf
       18 14 64 52 -46 76 1 63 9 -17 -7 -42 -19 -15 -127 -65
000090 19 81 67 21 0e ed 17 e6 5d 09 2f 12 ef 11 9f d8
       25 -127 103 33 14 -19 23 -26 93 9 47 18 -17 17 -97 -40
0000a0 c2 a2 f9 eb 81 01 0e 5c 3a 67 12 bc e6 27 2e 14
       -62 -94 -7 -21 -127 1 14 92 58 103 18 -68 -26 39 46 20
0000b0 45 dc ef a1 12 00 8e 81 e7 42 ee cc fc 1a 49 bc
       69 -36 -17 -95 18 0 -114 -127 -25 66 -18 -52 -4 26 73 -68
0000c0 12 22 39 d7 dd cf a9 0c d3 be 03 0c 3d 7f 62 2f
       18 34 57 -41 -35 -49 -87 12 -45 -66 3 12 61 127 98 47
0000d0 ea b4 ce 31 06 8f f9 ed 45 3c 04 eb 33 36 7f 12
       -22 -76 -50 49 6 -113 -7 -19 69 60 4 -21 51 54 127 18
0000e0 f1 c8 1c 14 03 02 05 72 09 2d fd e5 09 2a da 7f
       -15 -56 28 20 3 2 5 114 9 45 -3 -27 9 42 -38 127
0000f0 04 e1 0b 42 00 fb 7f 03 07 84 2e cc 04 e5 01 d2
       4 -31 11 66 0 -5 127 3 7 -124 46 -52 4 -27 1 -46

model_1/block_4_project/Conv2D i1 [16, 1, 1, 96]
000000 fd 17 fe 19 38 46 ee f2 25 f8 0d f3 f6 1b 16 4e
       -3 23 -2 25 56 70 -18 -14 37 -8 13 -13 -10 27 22 78
000010 03 f2 e4 fc 5c d2 0c f3 e0 e6 ce 99 00 f6 1d 33
       3 -14 -28 -4 92 -46 12 -13 -32 -26 -50 -103 0 -10 29 51
000020 78 f8 09 05 0b ef e3 0f e2 0f 26 e8 07 e5 ef 21
       120 -8 9 5 11 -17 -29 15 -30 15 38 -24 7 -27 -17 33
000030 ec 17 fc f9 c9 f3 05 fa 26 14 ea da cb 28 f8 f9
       -20 23 -4 -7 -55 -13 5 -6 38 20 -22 -38 -53 40 -8 -7
000040 12 09 3e 05 12 fe fd e6 b8 0b 05 fe f8 ad 02 fa
       18 9 62 5 18 -2 -3 -26 -72 11 5 -2 -8 -83 2 -6
000050 35 e7 d2 d7 30 f1 10 14 fc 0a 15 da 19 1a f2 7f
       53 -25 -46 -41 48 -15 16 20 -4 10 21 -38 25 26 -14 127
000060 47 a0 16 5c fa b0 00 db eb ac f1 17 f1 b1 e0 cd
       71 -96 22 92 -6 -80 0 -37 -21 -84 -15 23 -15 -79 -32 -51
000070 a6 03 17 1e d4 93 ce 31 70 c2 c6 2a ec 4d e6 35
       -90 3 23 30 -44 -109 -50 49 112 -62 -58 42 -20 77 -26 53
000080 03 1d d2 28 e4 01 2d e9 02 b2 49 d7 da 08 3f ea
       3 29 -46 40 -28 1 45 -23 2 -78 73 -41 -38 8 63 -22
000090 13 1c 06 c3 4a be 1e df 20 09 f8 84 20 ca 10 e9
       19 28 6 -61 74 -66 30 -33 32 9 -8 -124 32 -54 16 -23
0000a0 e7 af 2a 39 28 53 ac f4 81 15 f1 3e 27 54 2c fe
       -25 -81 42 57 40 83 -84 -12 -127 21 -15 62 39 84 44 -2
0000b0 12 0a c7 27 bc 3a f3 5a ce 13 0e 19 1a c7 39 f2
       18 10 -57 39 -68 58 -13 90 -50 19 14 25 26 -57 57 -14
0000c0 0d 0b 05 ea 01 fa f9 27 3b ef 17 36 f9 04 35 fc
       13 11 5 -22 1 -6 -7 39 59 -17 23 54 -7 4 53 -4
0000d0 f6 f7 0b f5 fb bd 16 ce f8 e8 f3 22 fa 0f 71 c5
       -10 -9 11 -11 -5 -67 22 -50 -8 -24 -13 34 -6 15 113 -59
0000e0 06 b8 e3 27 20 7f d9 d9 fb e9 f9 1b ce c7 d8 10
       6 -72 -29 39 32 127 -39 -39 -5 -23 -7 27 -50 -57 -40 16
0000f0 12 1a f3 e9 24 fd fd da e7 1a fd 28 04 07 36 4e
       18 26 -13 -23 36 -3 -3 -38 -25 26 -3 40 4 7 54 78

model_1/block_4_depthwise_BN/FusedBatchNormV3;model_1/block_4_depthwise/depthwise;model_1/block_6_expand/Conv2D i1 [1, 3, 3, 96]
000000 ee 07 eb 6b ef 18 c1 cc 0f fa 65 f6 04 f8 ff 35
       -18 7 -21 107 -17 24 -63 -52 15 -6 101 -10 4 -8 -1 53
000010 07 12 e3 04 4a 00 24 df 01 0e 2c 31 15 0d 18 2f
       7 18 -29 4 74 0 36 -33 1 14 44 49 21 13 24 47
000020 fa 21 0b ef 05 30 c3 e5 15 09 1e 12 a5 c4 19 fa
       -6 33 11 -17 5 48 -61 -27 21 9 30 18 -91 -60 25 -6
000030 f4 ed f8 fa 30 06 f6 02 00 dd 1b e3 1f 00 7f 1b
       -12 -19 -8 -6 48 6 -10 2 0 -35 27 -29 31 0 127 27
000040 f2 f6 09 cf 40 24 02 fa 47 e2 47 06 10 81 1f 3f
       -14 -10 9 -49 64 36 2 -6 71 -30 71 6 16 -127 31 63
000050 05 15 7f ef 28 1d df ea 22 f7 f2 51 02 11 ff 0b
       5 21 127 -17 40 29 -33 -22 34 -9 -14 81 2 17 -1 11
000060 ce 13 f8 0b 32 f7 f6 81 25 0d 81 f9 ee f4 07 60
       -50 19 -8 11 50 -9 -10 -127 37 13 -127 -7 -18 -12 7 96
000070 14 e1 f5 f0 47 a1 7f 1b c3 dd 95 f1 1a 2a cf 11
       20 -31 -11 -16 71 -95 127 27 -61 -35 -107 -15 26 42 -49 17
000080 77 0f f2 fe ea 7f c5 81 0a ee e6 0e 2e 81 7f d3
       119 15 -14 -2 -22 127 -59 -127 10 -18 -26 14 46 -127 127 -45
000090 b3 33 2f 07 26 c1 1e 36 27 29 9b 55 7f 21 00 ed
       -77 51 47 7 38 -63 30 54 39 41 -101 85 127 33 0 -19
0000a0 2b db a1 01 23 e3 ef 37 ce d6 6b fd e2 c1 e0 3f
       43 -37 -95 1 35 -29 -17 55 -50 -42 107 -3 -30 -63 -32 63
0000b0 be 44 f6 07 f5 2f 37 d6 e3 30 f3 48 81 e0 17 81
       -66 68 -10 7 -11 47 55 -42 -29 48 -13 72 -127 -32 23 -127
0000c0 ff ff e9 b7 09 10 27 11 fd ff 06 3d 01 f4 f8 07
       -1 -1 -23 -73 9 16 39 17 -3 -1 6 61 1 -12 -8 7
0000d0 f6 14 f4 10 09 18 18 e1 00 dd 07 0b f8 04 2e af
       -10 20 -12 16 9 24 24 -31 0 -35 7 11 -8 4 46 -81
0000e0 29 15 0b e7 0d 05 dd eb 08 05 f5 08 15 e1 14 00
       41 21 11 -25 13 5 -35 -21 8 5 -11 8 21 -31 20 0
0000f0 07 fb 04 fc 04 07 f9 08 fd 2c 07 ff 0e f2 02 f0
       7 -5 4 -4 4 7 -7 8 -3 44 7 -1 14 -14 2 -16

model_1/block_4_expand/Conv2D i1 [96, 1, 1, 16]
000000 1c ef 7f 2d 31 bf 32 e7 39 fe e2 ac 3f 25 fc c8
       28 -17 127 45 49 -65 50 -25 57 -2 -30 -84 63 37 -4 -56
000010 24 49 0d 0b 2a 0b 15 1f 23 59 db 7f de ec 61 b1
       36 73 13 11 42 11 21 31 35 89 -37 127 -34 -20 97 -79
000020 09 d0 e8 f3 e1 25 ac 48 ac 92 fe 45 02 81 39 96
       9 -48 -24 -13 -31 37 -84 72 -84 -110 -2 69 2 -127 57 -106
000030 7f 72 fe 30 87 08 b7 f3 06 09 64 c5 d0 66 cc e5
       127 114 -2 48 -121 8 -73 -13 6 9 100 -59 -48 102 -52 -27
000040 f4 16 fa 3d d1 37 d2 28 cf b9 fa 1a 15 81 62 f8
       -12 22 -6 61 -47 55 -46 40 -49 -71 -6 26 21 -127 98 -8
000050 7b db c5 f5 f7 81 f0 19 0f 0b 94 f0 64 13 1c 31
       123 -37 -59 -11 -9 -127 -16 25 15 11 -108 -16 100 19 28 49
000060 8e b5 f7 64 cf 24 b0 1a 81 96 ae b5 08 40 f6 57
       -114 -75 -9 100 -49 36 -80 26 -127 -106 -82 -75 8 64 -10 87
000070 e0 09 8f 3e 3a 81 c0 19 12 d0 1b 0c ee 12 e3 13
       -32 9 -113 62 58 -127 -64 25 18 -48 27 12 -18 18 -29 19
000080 1f d1 f8 f0 f5 19 ab cc fa 0e 9e 0e 81 0a fa 2c
       31 -47 -8 -16 -11 25 -85 -52 -6 14 -98 14 -127 10 -6 44
000090 13 84 76 4e f5 ed ef b3 5e 81 e9 da 12 26 90 36
       19 -124 118 78 -11 -19 -17 -77 94 -127 -23 -38 18 38 -112 54
0000a0 97 04 11 db 49 19 37 2c 6d e3 8a 29 4b a4 81 4e
       -105 4 17 -37 73 25 55 44 109 -29 -118 41 75 -92 -127 78
0000b0 32 04 81 0a 23 16 f5 32 e2 dd e2 0a 01 17 d2 19
       50 4 -127 10 35 22 -11 50 -30 -35 -30 10 1 23 -46 25
0000c0 6a b1 1a ed f5 bd cc d9 24 03 81 09 ab df 18 35
       106 -79 26 -19 -11 -67 -52 -39 36 3 -127 9 -85 -33 24 53
0000d0 5a 9f 1d e2 6d 30 81 a8 53 ca 05 f5 f5 06 1e e1
       90 -97 29 -30 109 48 -127 -88 83 -54 5 -11 -11 6 30 -31
0000e0 b6 2a 81 d5 2f 88 3a d1 33 2e ed 83 27 72 f0 58
       -74 42 -127 -43 47 -120 58 -47 51 46 -19 -125 39 114 -16 88
0000f0 37 26 33 35 33 c6 c6 19 19 c7 a7 f7 81 fe db 4e
       55 38 51 53 51 -58 -58 25 25 -57 -89 -9 -127 -2 -37 78

model_1/block_3_project/Conv2D i1 [16, 1, 1, 48]
000000 e6 04 eb 10 14 06 07 74 d1 1a 32 00 0d f5 f1 0b
       -26 4 -21 16 20 6 7 116 -47 26 50 0 13 -11 -15 11
000010 0b f0 f4 f5 46 f8 13 7d ea 65 02 f9 1c f5 13 dc
       11 -16 -12 -11 70 -8 19 125 -22 101 2 -7 28 -11 19 -36
000020 e7 3a 14 c4 0e 2b 19 f8 83 e3 1a 27 26 21 81 c1
       -25 58 20 -60 14 43 25 -8 -125 -29 26 39 38 33 -127 -63
000030 db fd 13 0c dc 11 05 38 ce df 0b d8 e4 f2 fd fa
       -37 -3 19 12 -36 17 5 56 -50 -33 11 -40 -28 -14 -3 -6
000040 ea 6b ee 0d 06 04 df ec 12 dc 16 1b e5 b2 d6 16
       -22 107 -18 13 6 4 -33 -20 18 -36 22 27 -27 -78 -42 22
000050 ef f5 24 fe fc d7 06 13 ea f0 7f 08 11 02 11 f2
       -17 -11 36 -2 -4 -41 6 19 -22 -16 127 8 17 2 17 -14
000060 ed f7 f8 df fe bf 06 ea 04 06 10 19 10 0f f0 09
       -19 -9 -8 -33 -2 -65 6 -22 4 6 16 25 16 15 -16 9
000070 fd ee ee f3 fb 01 fe 81 f6 45 ef 02 fe ee ff ff
       -3 -18 -18 -13 -5 1 -2 -127 -10 69 -17 2 -2 -18 -1 -1
000080 f6 37 0b 00 16 0c 15 fe db fe ec fc 01 fc 12 08
       -10 55 11 0 22 12 21 -2 -37 -2 -20 -4 1 -4 18 8
000090 f9 25 04 e0 fe ff 07 f6 eb fd 08 26 81 0c f7 fe
       -7 37 4 -32 -2 -1 7 -10 -21 -3 8 38 -127 12 -9 -2
0000a0 04 0e ea ff dc 08 03 0c f6 f7 07 18 f4 0f 02 15
       4 14 -22 -1 -36 8 3 12 -10 -9 7 24 -12 15 2 21
0000b0 00 03 10 18 f8 1b 28 09 0a 03 1a e0 0b fa 08 15
       0 3 16 24 -8 27 40 9 10 3 26 -32 11 -6 8 21
0000c0 25 e8 0e 0d 11 1f 16 e8 e6 07 f8 f0 fd 10 fd 0d
       37 -24 14 13 17 31 22 -24 -26 7 -8 -16 -3 16 -3 13
0000d0 1a f3 ae 07 f7 09 09 42 03 e8 09 31 04 b9 0a 04
       26 -13 -82 7 -9 9 9 66 3 -24 9 49 4 -71 10 4
0000e0 07 e4 24 81 0a 26 04 0f ed 0d 08 e7 fb e9 12 0d
       7 -28 36 -127 10 38 4 15 -19 13 8 -25 -5 -23 18 13
0000f0 1f 06 ef 38 fb f9 07 1f 04 f9 2e 08 ff 3b fa 05
       31 6 -17 56 -5 -7 7 31 4 -7 46 8 -1 59 -6 5

model_1/block_3_depthwise_BN/FusedBatchNormV3;model_1/block_3_depthwise/depthwise i1 [1, 3, 3, 48]
000000 47 a5 60 48 36 dd 6b bd 3d a6 ac 30 35 d4 bb a5
       71 -91 96 72 54 -35 107 -67 61 -90 -84 48 53 -44 -69 -91
000010 65 4f 31 4f 42 b8 b0 35 e0 d4 c2 c0 be 3c bf 8f
       101 79 49 79 66 -72 -80 53 -32 -44 -62 -64 -66 60 -65 -113
000020 f0 28 46 40 c1 38 cd e7 33 b3 39 3f a3 0a 4d df
       -16 40 70 64 -63 56 -51 -25 51 -77 57 63 -93 10 77 -33
000030 54 a1 7f 57 b6 bb c5 ac 61 97 bf 4a 50 94 a5 5a
       84 -95 127 87 -74 -69 -59 -84 97 -105 -65 74 80 -108 -91 90
000040 db 61 52 7f 55 8e 36 49 cd ac bd af 35 4e e1 81
       -37 97 82 127 85 -114 54 73 -51 -84 -67 -81 53 78 -31 -127
000050 a9 4e 52 54 b0 54 ae ee 4c 9f 53 59 b4 81 5e 9c
       -87 78 82 84 -80 84 -82 -18 76 -97 83 89 -76 -127 94 -100
000060 24 d2 45 27 13 d8 ce d9 2c df 05 23 1e b1 cb fe
       36 -46 69 39 19 -40 -50 -39 44 -33 5 35 30 -79 -53 -2
000070 cb 25 22 46 22 cb 1e 1a e5 cd d6 e9 1f 20 58 a5
       -53 37 34 70 34 -53 30 26 -27 -51 -42 -23 31 32 88 -91
000080 ae 2c 23 23 e2 2a da f5 29 d3 24 2a f9 f6 24 b8
       -82 44 35 35 -30 42 -38 -11 41 -45 36 42 -7 -10 36 -72
000090 5f 92 d6 5f 35 ae 7f a6 58 8d b7 52 55 8f f4 81
       95 -110 -42 95 53 -82 127 -90 88 -115 -73 82 85 -113 -12 -127
0000a0 7f 6d 4c da 55 6c 81 49 49 b2 a5 9b 81 55 bc f8
       127 109 76 -38 85 108 -127 73 73 -78 -91 -101 -127 85 -68 -8
0000b0 a9 46 6c 61 ab 51 b1 59 54 9c 58 5b a6 69 5f a5
       -87 70 108 97 -85 81 -79 89 84 -100 88 91 -90 105 95 -91
0000c0 7f 81 bf 7f 81 81 a5 81 7f 81 81 7f 7f 81 eb 60
       127 -127 -65 127 -127 -127 -91 -127 127 -127 -127 127 127 -127 -21 96
0000d0 c2 7f 7f cf 7f 7f 43 7f 7f 81 81 81 33 7f e5 10
       -62 127 127 -49 127 127 67 127 127 -127 -127 -127 51 127 -27 16
0000e0 81 7f 7f 7f 81 7f 81 7f 7f 81 7f 7f 81 f5 7f 81
       -127 127 127 127 -127 127 -127 127 127 -127 127 127 -127 -11 127 -127
0000f0 41 b3 e0 40 24 c1 cd c1 37 d6 c2 3a 2f cb f2 0a
       65 -77 -32 64 36 -63 -51 -63 55 -42 -62 58 47 -53 -14 10

model_1/block_3_expand/Conv2D i1 [48, 1, 1, 8]
000000 81 fe 00 35 e3 21 15 e7 16 42 16 10 1f da 7f 7c
       -127 -2 0 53 -29 33 21 -25 22 66 22 16 31 -38 127 124
000010 d5 fb f1 fd 81 f3 05 07 6d 06 ed 81 85 1d 1d ef
       -43 -5 -15 -3 -127 -13 5 7 109 6 -19 -127 -123 29 29 -17
000020 81 3b fd f2 48 fc 3e 0f 9d ee 14 f3 81 04 09 62
       -127 59 -3 -14 72 -4 62 15 -99 -18 20 -13 -127 4 9 98
000030 f0 81 11 ea 0f fb fb 1e bd f6 00 5a 7f e9 e5 05
       -16 -127 17 -22 15 -5 -5 30 -67 -10 0 90 127 -23 -27 5
000040 42 00 fe 81 12 d5 da e8 02 81 ff fb f5 5c c3 5b
       66 0 -2 -127 18 -43 -38 -24 2 -127 -1 -5 -11 92 -61 91
000050 9a f4 02 0a 81 38 56 fe 7f 06 1f 0d ca cb e4 81
       -102 -12 2 10 -127 56 86 -2 127 6 31 13 -54 -53 -28 -127
000060 fb 04 24 f7 0f c8 7f 37 4a eb 12 f5 63 77 7f d9
       -5 4 36 -9 15 -56 127 55 74 -21 18 -11 99 119 127 -39
000070 7f 3e e2 1e 8b fa de f5 ef 81 0b f0 ff fd 07 18
       127 62 -30 30 -117 -6 -34 -11 -17 -127 11 -16 -1 -3 7 24
000080 d1 ef f9 f7 81 ff 08 00 ea 71 81 02 03 82 60 98
       -47 -17 -7 -9 -127 -1 8 0 -22 113 -127 2 3 -126 96 -104
000090 7f d9 c8 0d ca 18 0d 7a 7f da e5 f1 35 df 2a fe
       127 -39 -56 13 -54 24 13 122 127 -38 -27 -15 53 -33 42 -2
0000a0 7f 21 f1 6e 0c 23 00 c3 fa 3e b8 f3 e7 5a 81 91
       127 33 -15 110 12 35 0 -61 -6 62 -72 -13 -25 90 -127 -111
0000b0 81 15 19 f2 d5 f7 dc 02 da cb 0b 1c 81 40 49 e9
       -127 21 25 -14 -43 -9 -36 2 -38 -53 11 28 -127 64 73 -23
0000c0 7f ef d9 fd 99 03 03 26 15 eb f6 e8 7f 34 39 db
       127 -17 -39 -3 -103 3 3 38 21 -21 -10 -24 127 52 57 -37
0000d0 02 9f 17 e3 fb 81 52 d7 f0 81 20 ee fe cb 23 f9
       2 -97 23 -29 -5 -127 82 -41 -16 -127 32 -18 -2 -53 35 -7
0000e0 81 0f e3 0f e5 d0 71 53 fb 2d 07 0e fa 22 92 81
       -127 15 -29 15 -27 -48 113 83 -5 45 7 14 -6 34 -110 -127
0000f0 7f dd fe 11 8d 12 c7 e4 fa ed 14 f9 16 ae 7f 2d
       127 -35 -2 17 -115 18 -57 -28 -6 -19 20 -7 22 -82 127 45

model_1/block_2_project/Conv2D i1 [8, 1, 1, 48]
000000 c6 f7 da 14 09 ea 05 03 9a 7f d8 64 77 08 4d f3
       -58 -9 -38 20 9 -22 5 3 -102 127 -40 100 119 8 77 -13
000010 f9 d7 04 fe f7 05 f3 da 15 a1 0c 48 f9 11 13 d6
       -7 -41 4 -2 -9 5 -13 -38 21 -95 12 72 -7 17 19 -42
000020 08 ac 68 0e fa f7 f6 02 6b f6 32 e7 d9 14 eb f1
       8 -84 104 14 -6 -9 -10 2 107 -10 50 -25 -39 20 -21 -15
000030 f9 1e 75 fd 00 eb 05 bd 23 fb 16 08 ee 08 02 81
       -7 30 117 -3 0 -21 5 -67 35 -5 22 8 -18 8 2 -127
000040 12 bd 0d 07 e5 22 20 e3 f1 f3 19 0a 10 fc 12 fe
       18 -67 13 7 -27 34 32 -29 -15 -13 25 10 16 -4 18 -2
000050 02 0e 11 15 e4 df 48 c9 01 34 f7 1a f9 01 0d fd
       2 14 17 21 -28 -33 72 -55 1 52 -9 26 -7 1 13 -3
000060 10 d1 15 e5 1a 21 f5 dd fc 0a f8 18 fa 2d 0e fc
       16 -47 21 -27 26 33 -11 -35 -4 10 -8 24 -6 45 14 -4
000070 db 7f ee e9 ea 1e d8 fb 68 f8 05 f7 e2 f6 fd e3
       -37 127 -18 -23 -22 30 -40 -5 104 -8 5 -9 -30 -10 -3 -29
000080 ed f4 09 0a fc 08 f2 04 15 eb f7 f7 04 1e e7 e6
       -19 -12 9 10 -4 8 -14 4 21 -21 -9 -9 4 30 -25 -26
000090 02 a8 fc 03 05 05 f7 02 f0 fe 09 16 0f f9 3a 02
       2 -88 -4 3 5 5 -9 2 -16 -2 9 22 15 -7 58 2
0000a0 f8 ea 08 1f f5 1d e9 07 04 32 06 06 f4 04 7f 07
       -8 -22 8 31 -11 29 -23 7 4 50 6 6 -12 4 127 7
0000b0 0d 0c 02 03 f1 f6 f1 0e f3 08 fe 18 05 f7 fb 1a
       13 12 2 3 -15 -10 -15 14 -13 8 -2 24 5 -9 -5 26
0000c0 a7 04 05 09 00 f1 fb ff 1e e4 17 ec d5 00 ee f4
       -89 4 5 9 0 -15 -5 -1 30 -28 23 -20 -43 0 -18 -12
0000d0 0a 0d fa 21 07 fb 0c 03 f7 35 01 64 02 ff f3 f5
       10 13 -6 33 7 -5 12 3 -9 53 1 100 2 -1 -13 -11
0000e0 00 81 da 0f 04 02 fb 05 d6 01 f5 12 bb 0a 05 0b
       0 -127 -38 15 4 2 -5 5 -42 1 -11 18 -69 10 5 11
0000f0 ed 18 0d fa d1 0f 01 29 0c 02 07 06 fd dc 07 1c
       -19 24 13 -6 -47 15 1 41 12 2 7 6 -3 -36 7 28

model_1/block_2_depthwise_BN/FusedBatchNormV3;model_1/block_2_depthwise/depthwise;model_1/block_3_depthwise/depthwise i1 [1, 3, 3, 48]
000000 03 fd 14 6f 04 50 ff 1c 0f 08 08 09 f9 f6 d1 09
       3 -3 20 111 4 80 -1 28 15 8 8 9 -7 -10 -47 9
000010 fe 08 e9 90 f9 ea 7f f8 fd 05 fb 09 fb 03 10 62
       -2 8 -23 -112 -7 -22 127 -8 -3 5 -5 9 -5 3 16 98
000020 15 1b 26 e4 02 23 fe 03 12 be fb f8 11 03 f8 f6
       21 27 38 -28 2 35 -2 3 18 -66 -5 -8 17 3 -8 -10
000030 7f 08 0f 81 1c 57 09 0b 7a 7f 06 2c cf e8 05 08
       127 8 15 -127 28 87 9 11 122 127 6 44 -49 -24 5 8
000040 7f c7 c6 ca 9c 19 91 10 0f 43 e1 ac 16 13 09 81
       127 -57 -58 -54 -100 25 -111 16 15 67 -31 -84 22 19 9 -127
000050 07 c0 7f 09 d9 d1 fc 77 b2 9f e6 03 de f9 81 17
       7 -64 127 9 -39 -47 -4 119 -78 -97 -26 3 -34 -7 -127 23
000060 e0 fc 08 0f 00 3f 03 12 1a 09 f1 20 f3 fc 11 04
       -32 -4 8 15 0 63 3 18 26 9 -15 32 -13 -4 17 4
000070 98 1c fd 50 e1 f4 ed fc fa c5 fe 1c ef 03 03 e8
       -104 28 -3 80 -31 -12 -19 -4 -6 -59 -2 28 -17 3 3 -24
000080 0a e7 10 ed 01 2f 2a f4 32 24 f3 0a d6 05 fd fa
       10 -25 16 -19 1 47 42 -12 50 36 -13 10 -42 5 -3 -6
000090 7e 07 00 9d 0e e4 24 f0 08 08 f4 36 f9 fe 11 df
       126 7 0 -99 14 -28 36 -16 8 8 -12 54 -7 -2 17 -33
0000a0 00 ce c6 aa 0a b7 82 ef 05 60 f1 81 f7 1e 0c 91
       0 -50 -58 -86 10 -73 -126 -17 5 96 -15 -127 -9 30 12 -111
0000b0 12 c9 ff 7f fe 3a d7 2a c2 81 27 a9 d3 f2 f2 fc
       18 -55 -1 127 -2 58 -41 42 -62 -127 39 -87 -45 -14 -14 -4
0000c0 1d 81 81 73 81 81 81 81 81 9f 7f 81 7f 7f 22 81
       29 -127 -127 115 -127 -127 -127 -127 -127 -97 127 -127 127 127 34 -127
0000d0 ad 7f 7f 95 7f 7f 70 7f 7f 81 81 1b 81 81 5f 7f
       -83 127 127 -107 127 127 112 127 127 -127 -127 27 -127 -127 95 127
0000e0 81 7f e4 d6 7f 81 7f 7f 7f b1 7f 7f 7f 85 64 69
       -127 127 -28 -42 127 -127 127 127 127 -79 127 127 127 -123 100 105
0000f0 37 04 30 f2 05 c4 2b 13 e8 0e 97 f9 00 d6 7f 04
       55 4 48 -14 5 -60 43 19 -24 14 -105 -7 0 -42 127 4

model_1/block_2_expand/Conv2D i1 [48, 1, 1, 8]
000000 58 04 f7 fc 7f fb dc 11 e6 fc fb 7f 27 0a 13 0f
       88 4 -9 -4 127 -5 -36 17 -26 -4 -5 127 39 10 19 15
000010 2a 81 f1 2f f8 a5 48 15 7f e9 ef 0c e0 dc 23 f7
       42 -127 -15 47 -8 -91 72 21 127 -23 -17 12 -32 -36 35 -9
000020 fe d6 7f f0 fd cd 1f 8c 4b 13 05 05 7f 01 e7 00
       -2 -42 127 -16 -3 -51 31 -116 75 19 5 5 127 1 -25 0
000030 03 6c f3 7f 1d 25 a8 ce 00 7f fe 02 fd fc 08 f9
       3 108 -13 127 29 37 -88 -50 0 127 -2 2 -3 -4 8 -7
000040 7f 1a f7 ff cb e2 ff fd 81 08 fc 0c 26 00 ff 02
       127 26 -9 -1 -53 -30 -1 -3 -127 8 -4 12 38 0 -1 2
000050 a3 e3 01 7f 2c 2d d6 f0 81 ff 19 cc 1f 14 da d9
       -93 -29 1 127 44 45 -42 -16 -127 -1 25 -52 31 20 -38 -39
000060 7f 34 03 18 d3 f2 fd b4 fd 5c 81 fc e9 6e a2 51
       127 52 3 24 -45 -14 -3 -76 -3 92 -127 -4 -23 110 -94 81
000070 c9 df e3 7f 04 f1 0d e7 fc 7f fc fe fd ee 0d cb
       -55 -33 -29 127 4 -15 13 -25 -4 127 -4 -2 -3 -18 13 -53
000080 ef 83 ee eb fd a1 7f f5 25 7f f8 f6 06 4e 8c f8
       -17 -125 -18 -21 -3 -95 127 -11 37 127 -8 -10 6 78 -116 -8
000090 e1 2b 81 09 0f 32 f4 46 c5 ff 05 14 81 02 29 30
       -31 43 -127 9 15 50 -12 70 -59 -1 5 20 -127 2 41 48
0000a0 81 ef fb f3 52 de 3f ef c2 f3 fc fb 81 fd 0b 08
       -127 -17 -5 -13 82 -34 63 -17 -62 -13 -4 -5 -127 -3 11 8
0000b0 81 d0 07 fa 5b f1 3e 41 e6 ec f9 fa 08 4b 81 9a
       -127 -48 7 -6 91 -15 62 65 -26 -20 -7 -6 8 75 -127 -102
0000c0 f9 25 81 09 11 23 f0 51 68 d3 f0 7f d0 d6 10 cf
       -7 37 -127 9 17 35 -16 81 104 -45 -16 127 -48 -42 16 -49
0000d0 fe f2 01 fd f3 7f 7f e5 43 f3 06 17 7f 1d 1f fb
       -2 -14 1 -3 -13 127 127 -27 67 -13 6 23 127 29 31 -5
0000e0 f8 7f d3 0a 0d 48 d2 58 00 0b 00 f4 f2 4d 81 a7
       -8 127 -45 10 13 72 -46 88 0 11 0 -12 -14 77 -127 -89
0000f0 06 00 ff 81 f8 fd f9 ec cf 06 04 01 81 11 13 ef
       6 0 -1 -127 -8 -3 -7 -20 -49 6 4 1 -127 17 19 -17

model_1/block_1_project/Conv2D i1 [8, 1, 1, 48]
000000 f2 ff 09 a5 08 19 04 07 06 04 04 f9 62 00 03 04
       -14 -1 9 -91 8 25 4 7 6 4 4 -7 98 0 3 4
000010 00 f6 fb fd 4c fd ff 03 1d 2b 0c 08 06 03 04 81
       0 -10 -5 -3 76 -3 -1 3 29 43 12 8 6 3 4 -127
000020 09 05 ff fd e7 0a f6 21 08 e4 f8 03 03 fd ff 06
       9 5 -1 -3 -25 10 -10 33 8 -28 -8 3 3 -3 -1 6
000030 e2 f6 f6 f8 2a 1c e7 47 15 09 e6 e1 0f 00 07 23
       -30 -10 -10 -8 42 28 -25 71 21 9 -26 -31 15 0 7 35
000040 00 28 12 cc 03 16 7f 14 e6 08 3a 03 17 f9 13 f6
       0 40 18 -52 3 22 127 20 -26 8 58 3 23 -7 19 -10
000050 0f fb f5 ef 0b cd 11 06 f6 fb b5 f7 de 07 ca aa
       15 -5 -11 -17 11 -51 17 6 -10 -5 -75 -9 -34 7 -54 -86
000060 bd 0f 0b 12 2b fd 1d 16 f2 2d 07 01 0c 00 fd 39
       -67 15 11 18 43 -3 29 22 -14 45 7 1 12 0 -3 57
000070 00 15 81 1a 05 16 02 ee e4 03 26 01 13 1e 1b 0b
       0 21 -127 26 5 22 2 -18 -28 3 38 1 19 30 27 11
000080 0a f2 fa f7 0b 1a 0a 03 29 fb e2 03 15 be 19 10
       10 -14 -6 -9 11 26 10 3 41 -5 -30 3 21 -66 25 16
000090 fe fd 09 16 fb 22 05 ff 45 0c f8 08 1b 00 d9 fa
       -2 -3 9 22 -5 34 5 -1 69 12 -8 8 27 0 -39 -6
0000a0 00 05 fd 03 f4 09 00 ea eb fb eb 01 fa 01 02 fc
       0 5 -3 3 -12 9 0 -22 -21 -5 -21 1 -6 1 2 -4
0000b0 d1 28 c7 02 01 0c 0d 81 fe fd 04 ca 00 fc 03 05
       -47 40 -57 2 1 12 13 -127 -2 -3 4 -54 0 -4 3 5
0000c0 00 fc 56 2a 03 eb fe 05 04 fb f2 f4 a7 00 f2 00
       0 -4 86 42 3 -21 -2 5 4 -5 -14 -12 -89 0 -14 0
0000d0 00 0e 05 06 46 08 04 fc eb 0e f5 2b 09 02 fd 6a
       0 14 5 6 70 8 4 -4 -21 14 -11 43 9 2 -3 106
0000e0 03 08 fe 04 03 03 f4 ec ff 81 07 04 00 fc 01 01
       3 8 -2 4 3 3 -12 -20 -1 -127 7 4 0 -4 1 1
0000f0 f7 2c 05 f9 ff 34 14 0f eb 1f 09 33 17 00 81 fe
       -9 44 5 -7 -1 52 20 15 -21 31 9 51 23 0 -127 -2

model_1/block_1_depthwise_BN/FusedBatchNormV3;model_1/block_1_depthwise/depthwise;model_1/block_3_depthwise/depthwise i1 [1, 3, 3, 48]
000000 d7 e9 fa f0 06 d9 b1 bc e6 cd 0a 42 22 b9 73 d5
       -41 -23 -6 -16 6 -39 -79 -68 -26 -51 10 66 34 -71 115 -43
000010 8f ae 26 f9 ff ba 91 b2 dd 81 bf f0 47 0f 61 1a
       -113 -82 38 -7 -1 -70 -111 -78 -35 -127 -65 -16 71 15 97 26
000020 81 a7 f7 36 11 2e 81 4e b2 f1 67 93 fd de a8 6a
       -127 -89 -9 54 17 46 -127 78 -78 -15 103 -109 -3 -34 -88 106
000030 4c 0b e5 e4 38 81 81 b0 3c b3 8e 6c 24 ae ff 3d
       76 11 -27 -28 56 -127 -127 -80 60 -77 -114 108 36 -82 -1 61
000040 cc 91 3b 06 0b 91 81 bc fc 82 8b db c9 14 c7 36
       -52 -111 59 6 11 -111 -127 -68 -4 -126 -117 -37 -55 20 -57 54
000050 1d 81 41 53 0b 47 a4 7f 81 06 7b 81 00 ea 81 5f
       29 -127 65 83 11 71 -92 127 -127 6 123 -127 0 -22 -127 95
000060 e1 2b 07 fa be 95 c5 ee 58 f7 81 26 09 b9 9c f4
       -31 43 7 -6 -66 -107 -59 -18 88 -9 -127 38 9 -71 -100 -12
000070 81 e8 1b 0c f0 b4 dc e8 f5 e4 c7 f6 f7 10 e9 09
       -127 -24 27 12 -16 -76 -36 -24 -11 -28 -57 -10 -9 16 -23 9
000080 69 ab 46 1f 0d 22 fa 0f b0 02 08 ae ee 05 c9 0f
       105 -85 70 31 13 34 -6 15 -80 2 8 -82 -18 5 -55 15
000090 ac 81 d4 d4 f5 37 62 97 e7 93 e8 71 5b c0 1b 9f
       -84 -127 -44 -44 -11 55 98 -105 -25 -109 -24 113 91 -64 27 -97
0000a0 87 a0 59 b4 29 a9 99 81 29 82 b2 dd 7f c4 7f 54
       -121 -96 89 -76 41 -87 -103 -127 41 -126 -78 -35 127 -60 127 84
0000b0 d5 ad f0 50 db b2 95 59 2a 3b 6a 93 a5 8a 54 78
       -43 -83 -16 80 -37 -78 -107 89 42 59 106 -109 -91 -118 84 120
0000c0 7f ad 81 81 7f 29 5d 81 64 81 91 7f 7f f2 fa 7f
       127 -83 -127 -127 127 41 93 -127 100 -127 -111 127 127 -14 -6 127
0000d0 c4 81 7f 81 7f 81 88 88 7f 94 81 81 88 81 b8 7f
       -60 -127 127 -127 127 -127 -120 -120 127 -108 -127 -127 -120 -127 -72 127
0000e0 1d 90 7f 7f b9 81 a0 59 3d 7f 7f 8c 8e 81 7f 7f
       29 -112 127 127 -71 -127 -96 89 61 127 127 -116 -114 -127 127 127
0000f0 cd 1f c2 a9 86 ea 1e da 7f eb b1 24 39 ba e7 d4
       -51 31 -62 -87 -122 -22 30 -38 127 -21 -79 36 57 -70 -25 -44

model_1/block_1_expand/Conv2D i1 [48, 1, 1, 8]
000000 0e 81 2d d7 19 e6 d4 17 3a 47 ee 93 ff ff ab 7f
       14 -127 45 -41 25 -26 -44 23 58 71 -18 -109 -1 -1 -85 127
000010 22 ff cd 74 30 7f 27 52 4d 51 bc 7f a6 f5 f1 07
       34 -1 -51 116 48 127 39 82 77 81 -68 127 -90 -11 -15 7
000020 d8 96 47 0c 15 18 d9 81 16 ff d9 27 ff d9 27 7f
       -40 -106 71 12 21 24 -39 -127 22 -1 -39 39 -1 -39 39 127
000030 41 ea 92 b7 7f 31 33 f0 7f 0b 13 e3 1b f7 58 bb
       65 -22 -110 -73 127 49 51 -16 127 11 19 -29 27 -9 88 -69
000040 18 a9 0a 4e f7 16 f7 81 63 81 06 fe ec 0d 87 59
       24 -87 10 78 -9 22 -9 -127 99 -127 6 -2 -20 13 -121 89
000050 81 d8 8d 1b f2 15 a1 35 f0 d4 f2 9b 81 ea 2e f0
       -127 -40 -115 27 -14 21 -95 53 -16 -44 -14 -101 -127 -22 46 -16
000060 12 07 d8 46 a2 e6 44 7f 00 00 00 00 00 00 00 00
       18 7 -40 70 -94 -26 68 127 0 0 0 0 0 0 0 0
000070 00 dd f8 0c 2e 7f 29 29 2b 04 0a 81 4e 2f cf 54
       0 -35 -8 12 46 127 41 41 43 4 10 -127 78 47 -49 84
000080 00 00 00 00 00 00 00 00 0e 14 7f 11 e9 f7 1d 1f
       0 0 0 0 0 0 0 0 14 20 127 17 -23 -9 29 31
000090 4d 81 10 1e f4 1d 91 fc 81 fc 2b 49 b9 ca 92 54
       77 -127 16 30 -12 29 -111 -4 -127 -4 43 73 -71 -54 -110 84
0000a0 19 18 df 62 ec 81 02 30 47 08 7f 0c e7 f3 50 09
       25 24 -33 98 -20 -127 2 48 71 8 127 12 -25 -13 80 9
0000b0 af f0 81 03 07 0f 9f fc a8 5e e6 e8 fd f8 7f b9
       -81 -16 -127 3 7 15 -97 -4 -88 94 -26 -24 -3 -8 127 -71
0000c0 02 c9 c9 54 ec c6 69 7f 0d 3d 24 2d 7f 6f b9 c9
       2 -55 -55 84 -20 -58 105 127 13 61 36 45 127 111 -71 -55
0000d0 b6 df 81 fb 04 12 a8 00 f8 f9 e3 0e d4 7f 3c 39
       -74 -33 -127 -5 4 18 -88 0 -8 -7 -29 14 -44 127 60 57
0000e0 00 dc e6 31 1b 7f 3b 49 5a 16 7f f2 e5 fc 57 ec
       0 -36 -26 49 27 127 59 73 90 22 127 -14 -27 -4 87 -20
0000f0 b9 7f ed d3 fa f6 62 d8 d0 9d f5 0a 2e b6 7d 7f
       -71 127 -19 -45 -6 -10 98 -40 -48 -99 -11 10 46 -74 125 127

model_1/expanded_conv_project/Conv2D i1 [8, 1, 1, 16]
000000 00 f2 08 fc 78 f3 fd fb fe 81 a6 f8 00 77 f5 00
       0 -14 8 -4 120 -13 -3 -5 -2 -127 -90 -8 0 119 -11 0
000010 00 e7 05 57 4e 0a 13 07 00 00 7f d3 00 23 f2 00
       0 -25 5 87 78 10 19 7 0 0 127 -45 0 35 -14 0
000020 00 02 fb f8 c1 07 0e 03 01 01 ec 03 00 7f f8 00
       0 2 -5 -8 -63 7 14 3 1 1 -20 3 0 127 -8 0
000030 00 f9 f3 81 4c 0f 3f 09 ff 39 05 22 00 00 0d 00
       0 -7 -13 -127 76 15 63 9 -1 57 5 34 0 0 13 0
000040 00 33 ec 22 cc 21 7f f7 01 c5 17 fd 00 fc 0e 00
       0 51 -20 34 -52 33 127 -9 1 -59 23 -3 0 -4 14 0
000050 00 f0 f6 00 ed eb f7 09 01 0a fb d5 00 fa 7f 00
       0 -16 -10 0 -19 -21 -9 9 1 10 -5 -43 0 -6 127 0
000060 00 0d 00 04 2f ee da fe ff 97 6d 3d 00 7f 3a 00
       0 13 0 4 47 -18 -38 -2 -1 -105 109 61 0 127 58 0
000070 00 0d f5 7f 0f f8 13 04 01 4e ca 4d 00 fb 35 00
       0 13 -11 127 15 -8 19 4 1 78 -54 77 0 -5 53 0

model_1/expanded_conv_depthwise_BN/FusedBatchNormV3;model_1/expanded_conv_depthwise/depthwise;model_1/block_5_project/Conv2D i1 [1, 3, 3, 16]
000000 94 12 ae 82 27 bd 50 b4 a7 fd f8 1d 81 05 36 b7
       -108 18 -82 -126 39 -67 80 -76 -89 -3 -8 29 -127 5 54 -73
000010 33 19 81 7f 7f 81 7f 81 ac 7f 81 33 97 05 7f e7
       51 25 -127 127 127 -127 127 -127 -84 127 -127 51 -105 5 127 -25
000020 18 e8 5b fe b8 43 a2 4e a1 e5 03 f0 3d 01 9b e3
       24 -24 91 -2 -72 67 -94 78 -95 -27 3 -16 61 1 -101 -29
000030 81 7f ea 0e d5 0f e4 0e e5 01 03 92 cf 09 e3 f2
       -127 127 -22 14 -43 15 -28 14 -27 1 3 -110 -49 9 -29 -14
000040 b2 d6 c7 f2 f9 e6 08 e5 95 a7 15 f4 98 81 01 17
       -78 -42 -57 -14 -7 -26 8 -27 -107 -89 21 -12 -104 -127 1 23
000050 0e 01 41 02 03 21 e7 22 81 06 fe 01 eb 0c fd 2b
       14 1 65 2 3 33 -25 34 -127 6 -2 1 -21 12 -3 43
000060 8d b8 45 02 fa 26 d9 34 b4 00 00 05 28 02 e6 17
       -115 -72 69 2 -6 38 -39 52 -76 0 0 5 40 2 -26 23
000070 17 fc 20 fe e5 28 de 15 83 f3 00 55 c6 00 e4 91
       23 -4 32 -2 -27 40 -34 21 -125 -13 0 85 -58 0 -28 -111
000080 15 f9 13 00 04 0e 09 16 8d 04 ff 81 6b 03 11 81
       21 -7 19 0 4 14 9 22 -115 4 -1 -127 107 3 17 -127

model_1/Conv1/Conv2D i1 [16, 3, 3, 3]
000000 00 00 00 00 00 00 00 00 00 00 00 00 00 00 00 00
       0 0 0 0 0 0 0 0 0 0 0 0 0 0 0 0
000010 00 00 00 00 00 00 00 00 00 00 00 34 f9 1b 01 e5
       0 0 0 0 0 0 0 0 0 0 0 52 -7 27 1 -27
000020 0b 8c 81 b8 09 f7 fd f0 fe f7 0c db ff 00 0c fb
       11 -116 -127 -72 9 -9 -3 -16 -2 -9 12 -37 -1 0 12 -5
000030 01 02 fa 30 ec 09 18 e8 ed 4e 73 f3 2c d2 04 01
       1 2 -6 48 -20 9 24 -24 -19 78 115 -13 44 -46 4 1
000040 fd f1 45 7f d1 17 f8 f4 36 ac 10 53 c5 e0 24 bd
       -3 -15 69 127 -47 23 -8 -12 54 -84 16 83 -59 -32 36 -67
000050 0b 08 1d fd 18 56 12 ff 04 04 16 27 fe 3a 7f 17
       11 8 29 -3 24 86 18 -1 4 4 22 39 -2 58 127 23
000060 f0 ea 08 04 07 ff 16 18 04 fc f8 04 1f 5a f7 07
       -16 -22 8 4 7 -1 22 24 4 -4 -8 4 31 90 -9 7
000070 63 f7 ee 1d 00 0b 5e 1a fe 7f 0f 08 3f ee 10 4d
       99 -9 -18 29 0 11 94 26 -2 127 15 8 63 -18 16 77
000080 08 09 72 f6 d3 17 03 0f 04 91 fe 01 92 fd 1b e8
       8 9 114 -10 -45 23 3 15 4 -111 -2 1 -110 -3 27 -24
000090 09 d8 81 fc d4 82 fd 0b ea fa 07 ea fd fd f1 fd
       9 -40 -127 -4 -44 -126 -3 11 -22 -6 7 -22 -3 -3 -15 -3
0000a0 0a f5 19 c3 24 2d ab 27 08 ee 0a 22 a1 3d 3b 81
       10 -11 25 -61 36 45 -85 39 8 -18 10 34 -95 61 59 -127
0000b0 47 06 e5 11 13 df 0e 0c d4 1a f5 09 02 dd 11 f6
       71 6 -27 17 19 -33 14 12 -44 26 -11 9 2 -35 17 -10
0000c0 82 d0 ef e1 16 f0 00 ff f9 81 9c e9 ff fd fb f7
       -126 -48 -17 -31 22 -16 0 -1 -7 -127 -100 -23 -1 -3 -5 -9
0000d0 2f f9 0f 1c 03 f9 28 ff 8d 9b 84 8d 9b 83 8c bd
       47 -7 15 28 3 -7 40 -1 -115 -101 -124 -115 -101 -125 -116 -67
0000e0 81 8f 9a 84 8d 99 83 8e b9 82 91 9c 88 90 9c 88
       -127 -113 -102 -124 -115 -103 -125 -114 -71 -126 -111 -100 -120 -112 -100 -120
0000f0 92 a2 87 ea fb 0a f2 f7 03 00 ff f7 71 74 fc 5b
       -110 -94 -121 -22 -5 10 -14 -9 3 0 -1 -9 113 116 -4 91
